hey_sybbi.onnx (onnx, 206810 bytes, 9 tensors)

layer1.weight f4 [32, 1536]
-0.026492031 0.013389693 0.0069234837 0.020712832 0.016976636 -0.005383784 0.0053908015 -0.0029603653
0.017608084 -0.013282515 -0.0074647423 -0.010808269 0.013713215 -0.023898236 0.001617006 -0.006426748
0.01849051 -0.016228832 -0.0073443134 -0.0027760882 -0.008483635 -0.013211373 0.004847162 0.033469543
-0.03542073 0.015463321 0.014399805 -0.011885666 -0.016599888 -0.019237194 -0.010534071 0.01755835
-0.023878563 -0.005409304 -0.01694033 0.008973956 0.013445443 0.00069035345 -0.031365898 -0.014016569
0.018630136 0.008682051 -0.010244211 -0.018660793 0.0068886145 -0.018863143 -0.00040080803 -0.013990257
-0.0021836155 -0.013456662 0.0033068114 0.012898731 0.018883854 0.006141834 -0.023550939 -0.013915855
-0.00089228014 0.030909447 0.009510363 -0.004083691 0.02136717 -0.011310387 0.004307028 -0.0008471507
0.011266779 0.00956483 -0.012150045 -0.0066471314 0.016047683 -0.0022768702 0.014465652 0.0033464301
-0.016297719 -0.007764412 0.013708604 -0.028365716 -0.007463751 -0.0034783115 0.0025440038 0.01936399
-0.012593696 0.005971272 -1.3201742e-05 -0.0059547024 -0.019995356 0.009448263 0.02316358 0.014193833
-0.0057537057 0.007906025 -0.02556471 -0.01733499 0.018431067 0.012772786 0.005908068 0.022880295
-0.0047098924 -0.007930244 0.01811008 0.018398087 -0.016190104 0.009236409 -0.0100209145 -0.028713012
0.007697738 0.0073365974 0.010373555 0.023018377 0.0015031409 -0.0118674645 0.016461637 -0.010341845
-0.0077864854 0.0001514349 -0.007301041 0.0030947304 0.009021402 0.004578278 -0.0025442706 -0.019862154
-0.003068576 -0.010421147 -0.02630428 0.009889466 0.0121040875 0.026663186 0.0005990781 0.009917026
-0.011904783 0.02641763 0.0012753296 0.016579634 -0.014253428 -0.01368485 0.00078977377 0.02083426
-0.010984288 -0.007468263 0.024940075 0.011240694 0.0061687045 0.00554583 0.016346602 0.013970781
0.030914182 -0.021084033 -0.016936474 -0.0001741127 0.010733406 -0.010793582 -0.020698942 0.0026576505
-0.00861741 0.024395227 -0.010270384 -0.00646346 0.0046935477 -2.2278893e-05 0.008608866 0.00206944
0.008132309 0.0162614 -0.009544035 -0.012051242 0.02641606 0.011965919 -0.010368139 0.016061181
-0.007910688 -0.009020426 -0.0064676707 0.011540391 -0.0053668716 0.008877999 -0.023048261 -0.019761343
0.010579835 0.021720665 -0.016300028 -0.0076007606 -0.0058498825 0.01599917 -0.007806151 0.007158776
0.02254255 -0.0042552315 -0.0010170563 0.006203834 0.010209836 0.0026077742 0.012729376 0.02012205
0.004374675 0.017298365 0.0142296925 0.027624369 -0.0023738835 0.0082328515 -0.0028174485 0.00821836
0.0010105416 0.014670031 -0.011350968 -0.0005929804 0.01037553 0.009730739 0.009323591 0.0007247385
0.026238464 -0.029311966 0.023849519 -0.018912023 0.025687618 -0.017924039 -0.012097718 0.026328439
-0.0067193755 0.008995824 0.01858278 0.0022777193 0.013603659 0.026104072 -0.008543114 0.0009955453
-0.005952537 0.0019446799 -0.008570565 -0.006990517 0.0018015152 -0.020500345 -0.024435606 -0.0033905017
-0.0030463554 -0.008311125 -0.010089844 0.0047625625 -0.0010179642 0.0018871446 -0.010456308 0.0013610389
0.017245363 -0.019389607 -0.024275457 0.010297418 -0.005376548 -0.01965791 -0.013264884 -0.006556051
0.0044404366 -0.015576111 -0.009861161 0.022899263 -0.0048091 0.02215328 -0.01659154 0.017142503
00000000: d105 d9bc 7160 5b3c 64de e23b f5ad a93c
00000010: 9612 8b3c 746a b0bb 52a5 b03b b002 42bb
00000020: d43e 903c e89e 59bc cc9a f4bb 2a15 31bc
00000030: 64ad 603c 3cc6 c3bc b8f1 d33a 7897 d2bb
00000040: 6979 973c 54f2 84bc 91a8 f0bb 08ef 35bb
00000050: f2fe 0abc 8474 58bc f1d4 9e3b 5c17 093d
00000060: 5415 11bd de59 7d3c 29ed 6b3c 19bc 42bc
00000070: 7dfc 87bc 5297 9dbc 1997 2cbc 87d6 8f3c
00000080: fa9c c3bc 8840 b1bb 72c6 8abc 8007 133c
00000090: 464a 5c3c d6f8 343a 8779 00bd c0a5 65bc
000000a0: 3a9e 983c 293f 0e3c 56d7 27bc 85de 98bc
000000b0: e3b9 e13b e186 9abc 8b23 d2b9 6437 65bc
000000c0: fd1a 0fbb 5579 5cbc 17b7 583b 3355 533c
000000d0: 50b2 9a3c 7041 c93b e6ed c0bc 54ff 63bc
000000e0: e8e7 69ba cf35 fd3c 5bd1 1b3c 7cd0 85bb
000000f0: 340a af3c 344f 39bc f821 8d3b 5213 5eba
00000100: 4c98 383c ceb5 1c3c fb10 47bc 2ed0 d9bb
00000110: 6e76 833c 8b37 15bb 5801 6d3c c84f 5b3b
00000120: cb82 85bc 9c6c febb 0d9a 603c 385f e8bc
00000130: 7b92 f4bb 62f4 63bb 4db9 263b 3ba1 9e3c
00000140: ca55 4ebc a9aa c33b 0d7d 5db7 aa1f c3bb
00000150: 4dcd a3bc e3cc 1a3c 8cc1 bd3c 408d 683c
00000160: 9589 bcbb 4688 013c 156d d1bc 1c02 8ebc
00000170: c0fc 963c f344 513c 7798 c13b 756f bb3c
00000180: 7155 9abb dbed 01bc 975b 943c 96b7 963c
00000190: 1ca1 84bc 4f54 173c c32e 24bc 8d37 ebbc
000001a0: 4e3d fc3b d767 f03b d8f5 293c 0991 bc3c
000001b0: 0a05 c53a c16f 42bc 8eda 863c d870 29bc
000001c0: c625 ffbb 7fca 1e39 923d efbb f6d0 4a3b
000001d0: 81ce 133c 6105 963b c7bd 26bb f5b5 a2bc
000001e0: 2a1a 49bb 75bd 2abc 137c d7bc 6d07 223c
000001f0: 3950 463c c16c da3c 730b 1d3a 067b 223c
00000200: 470c 43bc c969 d83c f628 a73a 03d2 873c
00000210: 3687 69bc 6c36 60bc d208 4f3a 9cac aa3c
00000220: 71f7 33bc 55b8 f4bb 214f cc3c e32a 383c
00000230: d822 ca3b cbb9 b53b 4fe9 853c b4e5 643c
00000240: bd3f fd3c 6cb8 acbc 5cbe 8abc 0692 36b9
00000250: 2bdb 2f3c 90d7 30bc d490 a9bc fa2b 2e3b
00000260: 0a30 0dbc 80d8 c73c 1d45 28bc 6fcb d3bb
00000270: 55cc 993b 8fe3 bab7 330c 0d3c 719f 073b
00000280: 603d 053c a136 853c 965e 1cbc 9372 45bc
00000290: 7e66 d83c b40c 443c 20df 29bc bd92 833c
000002a0: d59b 01bc 69ca 13bc c1ee d3bb e813 3d3c
000002b0: 95dc afbb 0775 113c b5cf bcbc 8ae2 a1bc
000002c0: 0b57 2d3c 89ef b13c a387 85bc cd0f f9bb
000002d0: 5fb0 bfbb b110 833c beca ffbb 2a94 ea3b
000002e0: 27ab b83c 786f 8bbb bf4e 85ba 8849 cb3b
000002f0: 2847 273c 31e7 2a3b df8e 503c ffd6 a43c
00000300: 6f59 8f3b 4db5 8d3c a823 693c 804c e23c
00000310: 2893 1bbb 15e3 063c f1a4 38bb 4da6 063c
00000320: 2674 843a 925a 703c 69f9 39bc 3e72 1bba
00000330: 21fe 293c ad6d 1f3c fac1 183c 61fc 3d3a
00000340: 0cf2 d63c a61f f0bc 1160 c33c 63ed 9abc
00000350: d76e d23c 6fd5 92bc 8235 46bc bdae d73c
00000360: 352e dcbb 3863 133c ea3a 983c ca45 153b
00000370: e2e1 5e3c 35d8 d53c 6bf8 0bbc f57c 823a
00000380: 800d c3bb a1e4 fe3a 8e6b 0cbc b510 e5bb
00000390: d220 ec3a 57f0 a7bc 2e2d c8bc 2e33 5ebb
000003a0: 5da5 47bb 632b 08bc e04f 25bc 450f 9c3b
000003b0: 366d 85ba 115a f73a ef50 2bbc e364 b23a
000003c0: 2646 8d3c f4d6 9ebc 53dd c6bc 80b6 283c
000003d0: c12d b0bb a009 a1bc f554 59bc 24d4 d6bb
000003e0: 1581 913b f232 7fbc b590 21bc 3c97 bb3c
000003f0: a895 9dbb cc7a b53c fbea 87bc 6f6e 8c3c

layer1.bias f4 [32]
0.020406602 -0.00012559726 0.012722031 0.006541517 -0.0035043918 0.0024167746 0.006372997 0.010559457
-0.0016357291 0.015653778 0.0038325128 0.016796436 -0.003875564 0.024066925 -0.0035453476 -0.014965848
-0.016638638 0.016734002 0.020838508 0.010717311 0.0030010636 0.017703779 0.009890244 -0.010305315
0.003615993 -0.024899784 -0.013252226 -0.009491243 -0.0046326346 0.015451303 -0.0029627592 -0.0060397102
00000000: bf2b a73c c2b2 03b9 1170 503c 395a d63b
00000010: f0a9 65bb c062 1e3b 93d4 d03b 9301 2d3c
00000020: f665 d6ba 5a3c 803c e52a 7b3b ae98 893c
00000030: 2dfd 7dbb 0028 c53c 1059 68bb 5133 75bc
00000040: c14d 88bc bf15 893c 85b5 aa3c a997 2f3c
00000050: 7ead 443b 8407 913c b10a 223c a0d7 28bc
00000060: 4cfa 6c3b a2fa cbbc dd1f 59bc 2981 1bbc
00000070: 5bcd 97bb 7627 7d3c da2a 42bb c3e8 c5bb

layernorm1.weight f4 [32]
0.9864882 0.99777734 1.0019152 0.9700198 1.0042992 0.99566704 0.9972182 0.9872556
0.96885014 0.9981273 0.9898421 0.97290623 0.99424726 1.0461849 1.0287226 0.9957616
1.006708 1.0208623 0.97378707 1.0025587 0.99147767 0.9541111 1.0146118 0.97426003
0.95155275 0.9968817 1.0106165 0.99889535 0.9981617 0.9945724 0.99779695 0.95747614
00000000: 7e8a 7c3f 566e 7f3f c23e 803f 3853 783f
00000010: e08c 803f 09e4 7e3f b149 7f3f c8bc 7c3f
00000020: 9006 783f 4585 7f3f 4b66 7d3f 6210 793f
00000030: fd86 7e3f 63e9 853f 2fad 833f 3bea 7e3f
00000040: cfdb 803f 9eab 823f 1c4a 793f d853 803f
00000050: 7bd1 7d3f a040 743f cdde 813f 1b69 793f
00000060: f698 733f a433 7f3f e25b 813f 9bb7 7f3f
00000070: 8687 7f3f 4c9c 7e3f 9f6f 7f3f 281d 753f

layernorm1.bias f4 [32]
0.0029064482 -0.011414493 -0.0039642095 9.217771e-05 0.0052493336 -0.006495337 0.0010876259 -0.011507612
0.0134387 -0.011229878 -0.016269643 -0.006320428 -0.0075456463 0.007860355 0.015300378 -0.008257698
0.0073821307 0.0017296541 -0.00399135 -0.00013271316 -0.010852219 0.0026941395 0.01729592 0.012786451
0.004009638 -0.013759229 -0.0057620634 -0.001511387 -0.012882982 -0.016071456 -0.011659841 0.02312643
00000000: 1c7a 3e3b db03 3bbc 33e6 81bb 884f c138
00000010: 9a02 ac3b d6d6 d4bb ab8e 8e3a 6c8a 3cbc
00000020: fe2d 5c3c 86fd 37bc ea47 85bc 981b cfbb
00000030: 7841 f7bb b8c8 003c 70ae 7a3c 4c4b 07bc
00000040: cde5 f13b 90b5 e23a dfc9 82bb eb28 0bb9
00000050: 81cd 31bc 2990 303b 2cb0 8d3c 437e 513c
00000060: 4863 833b 646e 61bc b1cf bcbb bb19 c6ba
00000070: 2513 53bc 49a8 83bc eb08 3fbc a473 bd3c

blocks.0.fcn_layer.weight f4 [32, 32]
-0.08383349 -0.04721801 -0.19007777 -0.04027344 0.029901862 -0.10712499 -0.038716447 0.0705925
0.13039747 -0.12286009 -0.11155985 0.09342178 0.09469535 0.07187601 -0.14040056 -0.13108562
0.15805565 0.013279797 -0.020065594 -0.15512349 0.061404727 -0.14609516 0.039190687 -0.017732423
0.17371787 0.14152892 -0.070367314 0.10834744 0.12319623 -0.15197168 -0.066454396 0.0787647
-0.044922423 0.08206357 -0.1172742 0.1082195 0.008319393 -0.10455756 -0.0076693217 -0.12971118
0.09898446 0.08231958 -0.07401347 -0.06901624 0.012328078 0.010836467 -0.11152097 0.112596326
0.045336183 -0.008222654 0.022132767 0.19222894 0.039747737 0.078065984 0.029672889 -0.16433111
-0.052219056 -0.054920904 0.019230306 0.11685256 0.14726171 0.12695277 0.048394717 0.17351897
-0.045249354 0.15039013 -0.114841156 -0.07589719 0.062580116 0.022501742 0.017573845 -0.14802781
0.12383878 0.05750405 -0.0018695461 0.025343409 0.104226984 -0.038611982 0.014623156 -0.070751816
-0.020347128 -0.1423388 0.11938886 0.023307905 -0.007697801 -0.09433146 0.14407615 0.14733097
-0.13186702 0.052949857 -0.107218646 -0.11087057 -0.13745654 0.11350218 -0.09561342 0.022225406
-0.06003728 -0.14416422 0.075525515 -0.10634714 -0.13082363 -0.13751586 0.15506026 0.062158868
0.03497933 0.005738168 -0.065718904 -0.058702216 0.011416655 0.09624669 0.13224824 0.15989561
0.0879976 -0.0869621 0.14146842 -0.0052688313 -0.15065134 0.059066664 -0.13178842 0.19284938
0.17096707 -0.013378359 0.12973046 0.0632686 -0.009754105 0.038506914 -0.15787557 0.025236972
0.110578045 -0.11652417 -0.000659518 -0.05639703 -0.08780331 0.049028665 0.17745942 -0.08084543
0.07278942 -0.11110057 -0.102004126 0.13401502 -0.06131133 -0.0034277218 0.12251843 0.09355173
-0.09628804 -0.07225381 0.02666418 -0.035930455 0.07362331 -0.009726407 0.020340886 0.10361062
0.0392909 -0.075481795 0.015867298 -0.06105443 -0.14478646 -0.06758447 -0.100728594 -0.09656693
-0.0835996 -0.13831809 -0.1169204 -0.0443278 -0.090433754 0.12653227 0.15341812 0.14082979
-0.11564837 0.1253015 0.030726504 0.11933148 0.16050187 0.08216127 0.021361627 0.15517694
0.15023233 0.114174016 0.13992468 -0.061969213 0.16520502 -0.07524783 -0.16621329 0.036379077
-0.17289081 -0.046435855 -0.012517494 -0.1243693 0.09676301 0.08989099 0.11814244 0.13770072
0.006535511 0.036805175 0.23712994 -0.016929336 0.060073256 -0.05922266 -0.05122138 -0.12939693
-0.18954407 0.016275072 0.14326525 -0.14238937 0.015184808 0.024716167 -0.028704653 0.022491891
-0.05016958 -0.13257721 0.052990902 0.0024787174 -0.03260831 0.077510625 -0.2100406 -0.078882545
0.10793173 0.0096439235 0.049026255 0.08367715 -0.067523114 -0.060072448 -0.053492744 0.076350324
-0.11075592 -0.09692083 0.1753395 0.15021813 -0.11557687 -0.14160453 0.006591034 0.14048849
0.14393151 -0.018125946 -0.039978907 0.17318898 0.15603502 -0.14084496 0.08579917 0.086189285
0.13015774 0.107748136 -0.092759 0.17207345 0.11559149 -0.120405346 -0.0066329096 -0.12745857
0.04185298 -0.06139356 0.06374254 -0.09830731 0.13471787 -0.08744344 0.102657534 -0.03040605
00000000: e5b0 abbd ac67 41bd bfa3 42be c3f5 24bd
00000010: c0f4 f43c 5964 dbbd 2395 1ebd cd92 903d
00000020: ea86 053e 129e fbbd 7e79 e4bd eb53 bf3d
00000030: a3ef c13d bb33 933d 2ac5 0fbe 4f3b 06be
00000040: 57d9 213e 8193 593c 9a60 a4bc b1d8 1ebe
00000050: 8683 7b3d f899 15be 6a86 203d 9643 91bc
00000060: 19e3 313e f5ec 103e bd1c 90bd 43e5 dd3d
00000070: 4e4e fc3d 779e 1bbe 3e19 88bd 634f a13d
00000080: 9300 38bd f210 a83d 752d f0bd 2fa2 dd3d
00000090: 104e 083c 4622 d6bd ef4e fbbb 02d3 04be
000000a0: 5db8 ca3d 2b97 a83d 6094 97bd 6358 8dbd
000000b0: b5fb 493c 708b 313c 1b65 e4bd e798 e63d
000000c0: 6fb2 393d 50b8 06bc c74f b53c aad7 443e
000000d0: 86ce 223d 0fe1 9f3d 8f14 f33c 6a46 28be
000000e0: a6e3 55bd bef4 60bd e088 9d3c 6550 ef3d
000000f0: c6cb 163e e8ff 013e 8a39 463d f5ae 313e
00000100: 6357 39bd dfff 193e d731 ebbd fc6f 9bbd
00000110: 012a 803d 9355 b83c 06f7 8f3c 9a94 17be
00000120: 309f fd3d 5e89 6b3d 8f0b f5ba fb9c cf3c
00000130: f574 d53d 9927 1ebd f695 6f3c 54e6 90bd
00000140: 05af a6bc 43c1 11be 2682 f43d 38f0 be3c
00000150: d63d fcbb da30 c1bd b388 133e eedd 163e
00000160: 2608 07be f3e1 583d 7395 dbbd 1c10 e3bd
00000170: 68c1 0cbe d573 e83d f8d0 c3bd 0e12 b63c
00000180: a7e9 75bd c99f 13be 1fad 9a3d 88cc d9bd
00000190: a1f6 05be f5d0 0cbe 1ec8 1e3e 4c9a 7e3d
000001a0: 7c46 0f3d 3e07 bc3b a297 86bd bc71 70bd
000001b0: ec0c 3b3c fc1c c53d 156c 073e adbb 233e
000001c0: 1638 b43d 2f19 b2bd 19dd 103e 29a6 acbb
000001d0: 5844 1abe e3ef 713d 8bf3 06be 4f7a 453e
000001e0: fe11 2f3e e830 5bbc 10d8 043e f892 813d
000001f0: aecf 1fbc 6db9 1d3d 22aa 21be c4bd ce3c
00000200: be76 e23d 39a4 eebd 81e3 2cba 9200 67bd
00000210: 39d2 b3bd 48d2 483d ecb7 353e 4a92 a5bd
00000220: 9f12 953d b288 e3bd 8ae7 d0bd 3c3b 093e
00000230: 9721 7bbd a1a3 60bb f1ea fa3d 0d98 bf3d
00000240: aa32 c5bd cef9 93bd d76e da3c d02b 13bd
00000250: d1c7 963d 825b 1fbc eea1 a63c ce31 d43d
00000260: 7fef 203d 3396 9abd 23fc 813c 3614 7abd
00000270: e742 14be ba69 8abd cb4a cebd e2c4 c5bd
00000280: 4436 abbd 42a3 0dbe f673 efbd 1191 35bd
00000290: 5535 b9bd ad91 013e a419 1d3e af35 103e
000002a0: 0dd9 ecbd 094f 003e 26b6 fb3c 1064 f43d
000002b0: 9a5a 243e 2b44 a83d 94fe ae3c b4e6 1e3e
000002c0: 81d6 193e 11d4 e93d 6a48 0f3e 6ed3 7dbd
000002d0: 812b 293e 891b 9abd d133 2abe 3a02 153d
000002e0: 4a0a 31be 8633 3ebd 2d16 4dbc 55b5 febd
000002f0: af2b c63d c418 b83d aaf4 f13d 6b01 0d3e
00000300: d727 d63b 06c1 163d 31d2 723e 64af 8abc
00000310: 600f 763d 7693 72bd 82cd 51bd a180 04be
00000320: d717 42be 4d53 853c 20b4 123e 85ce 11be
00000330: b3c9 783c 8f79 ca3c 0526 ebbc ea40 b83c
00000340: 9e7e 4dbd 52c2 07be fd0c 593d fa71 223b
00000350: 4b90 05bd e4bd 9e3d e214 57be 2c8d a1bd
00000360: 500b dd3d 8c01 1e3c c1cf 483d ed5e ab3d
00000370: 8f49 8abd 870e 76bd 351b 5bbd 8f5d 9c3d
00000380: 00d4 e2bd 6e7e c6bd 338c 333e c8d2 193e
00000390: 91b3 ecbd c700 11be 9af9 d73b 37dc 0f3e
000003a0: c862 133e dd7c 94bc ecc0 23bd 7458 313e
000003b0: a5c7 1f3e a939 10be 7ab7 af3d 0284 b03d
000003c0: 1248 053e 0eab dc3d 6ef8 bdbd 0634 303e
000003d0: 3bbb ec3d 1497 f6bd e158 d9bb 8084 02be
000003e0: 086e 2b3d d077 7bbd 738b 823d 5855 c9bd
000003f0: 7bf3 093e 8c15 b3bd 1d3e d23d 1c16 f9bc

blocks.0.fcn_layer.bias f4 [32]
-0.0483851 0.038863625 -0.025748562 -0.1184835 0.062048934 0.0777961 0.037096247 0.0030300417
-0.1149623 -0.13366431 -0.14459188 0.09427307 -0.16322449 -0.017892094 0.035413362 -0.12602542
-0.0889518 0.045737237 0.0908559 -0.1194698 0.08263475 -0.13091876 0.10403351 0.06387955
0.03946155 0.15772818 0.010235101 -0.035706025 -0.10084176 0.01633452 0.050441578 0.1235897
00000000: 742f 46bd 772f 1f3d a6ee d2bc 7aa7 f2bd
00000010: 0627 7e3d 9053 9f3d 3cf2 173d aa93 463b
00000020: 5b71 ebbd 4cdf 08be e50f 14be 3d12 c13d
00000030: 5224 27be 7192 92bc 9a0d 113d cf0c 01be
00000040: 5c2c b6bd f856 3b3d a812 ba3d 95ac f4bd
00000050: 683c a93d 910f 06be 850f d53d 48d3 823d
00000060: 6fa2 213d 7f83 213e 20b1 273c 7b40 12bd
00000070: 2086 cebd f9cf 853c d49b 4e3d 991c fd3d

blocks.0.layer_norm.weight f4 [32]
0.98741865 1.0039984 1.0347797 1.3648012 1.2582544 1.2628897 0.9963121 1.011209
1.0292283 1.1000173 0.9980897 1.209202 0.9893079 1.0259533 1.2705616 1.016155
1.0341169 1.4601731 1.0299923 1.003526 1.1503148 0.98431593 1.0365584 1.3618902
1.2260299 1.0435466 1.0919981 1.0298684 1.0171125 1.036988 1.259784 0.9932083
00000000: 78c7 7c3f 0583 803f a973 843f ceb1 ae3f
00000010: 7b0e a13f 5fa6 a13f 4f0e 7f3f 4c6f 813f
00000020: c1bd 833f 5ecd 8c3f ce82 7f3f 22c7 9a3f
00000030: 4843 7d3f 7052 833f c3a1 a23f 5e11 823f
00000040: f15d 843f f4e6 ba3f cad6 833f 8a73 803f
00000050: 843d 933f 21fc 7b3f f2ad 843f 6b52 ae3f
00000060: 8cee 9c3f ef92 853f 98c6 8b3f bad2 833f
00000070: be30 823f 06bc 843f 9a40 a13f e642 7e3f

blocks.0.layer_norm.bias f4 [32]
-0.021329353 0.008478363 0.024243569 0.3080569 0.2667062 0.2725162 -0.0068017505 0.009478839
0.016445847 0.06553923 -0.00096266676 0.24595897 -0.013588194 0.023640528 0.267832 0.025714131
0.024319233 0.3539213 0.023115668 0.0065855402 0.13608395 -0.009728759 0.031858593 0.30726907
0.24827573 0.028605398 0.06195398 0.03528025 0.017062753 0.018328495 0.2654329 -0.008139818
00000000: e5ba aebc d5e8 0a3c 739a c63c a2b9 9d3e
00000010: b78d 883e 3e87 8b3e 38e1 debb 224d 1b3c
00000020: 71b9 863c 6f39 863d 795b 7cba abdc 7b3e
00000030: 04a1 5ebc c8a9 c13c 4721 893e 71a6 d23c
00000040: 2139 c73c 2c35 b53e 125d bd3c 84cb d73b
00000050: 9759 0b3e 5f65 1fbc 287e 023d 5f52 9d3e
00000060: fe3b 7e3e de55 ea3c 75c3 7d3d 0682 103d
00000070: 30c7 8b3c a425 963c d2e6 873e df5c 05bc

last_layer.weight f4 [1, 32]
-0.031901997 0.12270637 0.04923867 -0.33811447 -0.30779868 -0.29651508 0.14360851 0.03576796
0.13732222 0.09966254 0.015419121 -0.32572266 -0.008256825 0.10321172 -0.3301059 -0.017453078
0.11505424 -0.38070878 0.12094804 -0.031101545 0.18536812 0.00060578855 0.1593103 -0.33237112
-0.34541845 0.16790383 0.24547996 0.034731388 0.12291211 0.20281519 -0.31643718 0.11838776
00000000: abab 02bd 7a4d fb3d 7dae 493d 571d adbe
00000010: ca97 9dbe d3d0 97be 1c0e 133e 6d81 123d
00000020: 329e 0c3e e01b cc3d 7ba0 7c3c 1fc5 a6be
00000030: a247 07bc ab60 d33d a403 a9be c2f9 8ebc
00000040: 8fa1 eb3d 43ec c2be 9bb3 f73d abc8 febc
00000050: 24d1 3d3e c8cd 1e3a 3d22 233e 8c2c aabe
00000060: b0da b0be fbee 2b3e 195f 7b3e 8042 0e3d
00000070: 58b9 fb3d c9ae 4f3e 0e04 a2be 4875 f23d
